checkpoints/cifar10_ScalableResNet_1.pt (torch, 737890 bytes, 77 tensors)

stem.0.weight f4 [16, 3, 3, 3]
-0.104931705 -0.09808325 0.13974576 -0.28417718 -0.22448865 -0.023688748 -0.225192 -0.21064472
-0.010457914 0.021738313 0.037046105 0.047194406 -0.02691252 0.12429919 0.03522122 -0.0033736024
0.13338946 0.097626336 0.048827186 0.004982421 -0.21517247 0.22589558 0.31750768 -0.085239284
0.27676144 0.37898552 0.054818567 0.1308181 0.037936322 0.09283777 0.1979975 -0.17267182
0.0048543625 0.12372686 -0.016712071 -0.018838307 0.0445312 -0.12533166 0.114707656 -0.043325067
-0.3656125 -0.003456686 0.03978378 -0.030954527 0.093213916 -0.03127527 -0.20005102 -0.1255685
-0.116066895 -0.37589815 -0.15443543 0.008457352 -0.074542224 -0.0176931 0.43762845 -0.16760819
-0.38793948 0.524883 0.2879757 -0.54608375 0.50279486 -0.11812767 -0.5237806 -0.20840797
-0.17641091 0.11869162 -0.28206235 0.38036394 0.40301067 -0.114716165 -0.10114224 0.061335064
-0.2730677 -0.15470453 0.1158451 -0.47840378 0.36395258 0.6115908 -0.31231606 -0.07067968
0.22811677 0.011898644 0.040795725 -0.08668257 -0.07919929 -0.33032572 -0.2613542 -0.07753999
-0.38760623 -0.30035368 0.10929264 0.2788285 0.1608565 0.06792698 -0.020720927 0.06509274
0.046681564 -0.16324955 -0.03658209 0.049220905 0.29594645 0.16342679 0.03841546 0.11589663
0.17967744 -0.0045818426 -0.0439855 0.094993114 -0.1502738 -0.35991046 -0.21818449 0.13092072
0.13065445 0.08161056 0.12535591 0.28619128 0.20476967 -0.21867767 -0.34035048 -0.29623398
0.113160245 0.23856193 0.06621035 0.14568192 0.3888901 0.18319319 -0.25180778 -0.31661996
-0.18995936 -0.002807732 0.14302692 0.076747395 0.069314815 0.30256602 0.16397907 0.08090576
-0.03981416 -0.076204225 0.009979491 -0.08705011 -0.14317775 0.0053199017 -0.10734285 -0.16692199
-0.009743385 -0.05123645 -0.10361975 0.016474267 0.06527811 -0.041681692 0.026335806 0.040455192
-0.06898182 0.07716245 0.13622727 0.033094563 0.15021499 0.3344186 0.20805341 0.09252812
0.22286339 0.106591195 -0.046131328 -0.10886582 -0.060356975 -0.28583688 -0.26021007 -0.15332465
-0.27129987 -0.2829216 -0.28153184 -0.062658794 0.14925417 0.08017131 0.16987361 0.7449111
0.610957 0.1963386 0.7303092 0.46794307 0.09505439 -0.23629794 -0.09568947 -0.032299895
-0.4250538 -0.35269138 0.13099454 -0.26588634 -0.34248778 -0.0839496 0.16143258 0.04733645
0.012840558 0.35988846 0.23466647 -0.15582678 -0.40350795 -0.12493783 0.08608583 0.28417504
0.090868354 0.124943994 0.3523341 0.19701727 -0.24598502 -0.5345041 -0.23022662 -0.015236023
0.023326673 -0.07047008 0.18021563 0.21094264 0.093807176 -0.07504008 -0.40115237 -0.19270694
0.27863392 0.25955138 0.14827754 0.24080338 0.1332648 0.050393708 0.06403753 -0.07086272
-0.1059562 0.066331014 0.036356326 0.011580758 0.028829785 -0.039654445 -0.020183796 -0.03722874
-0.072056405 -0.006865245 0.09826806 0.060521804 0.0203856 0.00436423 -0.0657085 -0.035077382
-0.03570647 -0.11545278 -0.03592255 0.08704187 -0.27212206 0.10336754 -0.31660244 0.9267888
-0.16170456 -0.045173984 -0.13107368 0.1160872 0.057747595 -0.19555326 -0.048787273 -0.19305107
00000000: 6fe6 d6bd dfdf c8bd 8319 0f3e ac7f 91be
00000010: 5ae0 65be e80e c2bc bb98 66be 40b3 57be
00000020: ac57 2bbc 8c14 b23c a8bd 173d ec4e 413d
00000030: a577 dcbc 9390 fe3d 2044 103d a817 5dbb
00000040: 3f97 083e 51f0 c73d 04ff 473d 9443 a33b
00000050: 2c56 5cbe 2c51 673e 5e90 a23e ef91 aebd
00000060: adb3 8d3e 640a c23e 6f89 603d 2ef5 053e
00000070: 1e63 1b3d bb21 be3d dbbf 4a3e e2d0 30be
00000080: 5811 9f3b 8264 fd3d c1e7 88bc cb52 9abc
00000090: 5966 363d f156 00be d9eb ea3d a075 31bd
000000a0: 9031 bbbe 9189 62bb 51f4 223d 5994 fdbc
000000b0: f0e6 be3d 7f1a 00bd 2dda 4cbe 0795 00be
000000c0: 7bb4 edbd b975 c0be 5224 1ebe b590 0a3c
000000d0: 98a9 98bd 1ff1 90bc d610 e03e 7ba1 2bbe
000000e0: 01a0 c6be bb5e 063f 8d71 933e 25cc 0bbf
000000f0: 2ab7 003f ebec f1bd 7c16 06bf e668 55be
00000100: 10a5 34be 9814 f33d 7a6a 90be 10bf c23e
00000110: 6a57 ce3e 4ff0 eabd aa23 cfbd 7a3a 7b3d
00000120: 88cf 8bbe dd6a 1ebe 3240 ed3d 57f1 f4be
00000130: fe57 ba3e 3791 1c3f e4e7 9fbe 82c0 90bd
00000140: 7197 693e 88f2 423c 6b19 273d a286 b1bd
00000150: 3d33 a2bd 7420 a9be 38d0 85be 49cd 9ebd
00000160: 5374 c6be f5c7 99be d2d4 df3d 9cc2 8e3e
00000170: 91b7 243e 4d1d 8b3d efbe a9bc 584f 853d
00000180: 2b35 3f3d e42a 27be 1ad7 15bd dc9b 493d
00000190: 4b86 973e 5a59 273e 8859 1d3d 365b ed3d
000001a0: 5dfd 373e 4823 96bb 242a 34bd c08b c23d
000001b0: 60e1 19be 2f46 b8be c16b 5fbe 1510 063e
000001c0: 48ca 053e 7023 a73d 4d5d 003e aa87 923e
000001d0: 24af 513e 0aed 5fbe 6b42 aebe fbab 97be
000001e0: 8fc0 e73d 9449 743e 4b99 873d a42d 153e
000001f0: 9a1c c73e ff96 3b3e f3ec 80be 031c a2be
00000200: b584 42be ed01 38bb a675 123e bd2d 9d3d
00000210: edf4 8d3d efe9 9a3e 21ea 273e ebb1 a53d
00000220: 2c14 23bd f610 9cbd 0581 233c 5447 b2bd
00000230: 309d 12be 9252 ae3b 91d6 dbbd 99ed 2abe
00000240: b8a2 1fbc 50dd 51bd 9736 d4bd 0bf5 863c
00000250: 88b0 853d 6cba 2abd 30be d73c 58b4 253d
00000260: 5746 8dbd 5907 9e3d 297f 0b3e 2a8e 073d
00000270: f5d1 193e ea38 ab3e f40b 553e 627f bd3d
00000280: 4d36 643e 7c4c da3d 34f4 3cbd 0bf5 debd
00000290: e038 77bd 3659 92be 413a 85be 2301 1dbe
000002a0: d1e7 8abe 1adb 90be f124 90be 4153 80bd
000002b0: 16d6 183e db30 a43d 59f3 2d3e 7eb2 3e3f
000002c0: ae67 1c3f fc0c 493e 8bf5 3a3f 3c96 ef3e
000002d0: e0ab c23d 16f8 71be d7f8 c3bd e54c 04bd
000002e0: a7a0 d9be f793 b4be 6f23 063e 4122 88be
000002f0: 8f5a afbe c5ed abbd 954e 253e dee3 413d
00000300: 3461 523c 4d43 b83e 684c 703e 0e91 1fbe
00000310: 9898 cebe 68df ffbd c54d b03d 647f 913e
00000320: 3019 ba3d a3e2 ff3d 2365 b43e e5be 493e
00000330: 7fe3 7bbe 43d5 08bf 87c0 6bbe 83a0 79bc
00000340: 9417 bf3c 9e52 90bd 728a 383e 5901 583e
00000350: fa1d c03d 9dae 99bd d863 cdbe f854 45be
00000360: 1ba9 8e3e ebe3 843e 11d6 173e 2995 763e
00000370: 9176 083e a269 4e3d 1c26 833d 7920 91bd
00000380: 90ff d8bd 8ed8 873d 5fea 143d 38bd 3d3c
00000390: 712c ec3c b36c 22bd 7d58 a5bc 2a7d 18bd
000003a0: 4f92 93bd d9f5 e0bb c440 c93d b6e5 773d
000003b0: b4ff a63c d101 8f3b 2e92 86bd 4dad 0fbd
000003c0: f340 12bd 8272 ecbd 8623 13bd 0243 b23d
000003d0: 9553 8bbe 5cb2 d33d b719 a2be 0842 6d3f
000003e0: e195 25be 5b08 39bd 2e38 06be 20bf ed3d
000003f0: be88 6c3d 1d3f 48be 2ad5 47bd 2eaf 45be

stem.1.weight f4 [16]
0.22489323 0.5446744 0.3184466 0.29432878 0.3988456 0.23492134 0.3209463 0.41838968
0.35440102 0.27184176 0.29894575 0.48817497 0.22419474 0.39216784 0.3197293 0.34391257
00000000: 694a 663e c86f 0b3f 6f0b a33e 43b2 963e
00000010: 7e35 cc3e 388f 703e 1353 a43e 2c37 d63e
00000020: 0d74 b53e d82e 8b3e 6b0f 993e 12f2 f93e
00000030: 4e93 653e 39ca c83e 8fb3 a33e 4f15 b03e

stem.1.bias f4 [16]
0.14526625 -0.29863757 0.5274856 0.0517022 0.27023697 0.04801548 0.2847505 0.27148616
-0.09066482 0.80000174 0.46009415 -0.16267313 0.25465903 0.35829124 0.19004935 0.32810533
00000000: adc0 143e 06e7 98be 4c09 073f b0c5 533d
00000010: 805c 8a3e e1ab 443d d1ca 913e 3c00 8b3e
00000020: 7aae b9bd eacc 4c3f 7691 eb3e c993 26be
00000030: ab62 823e f371 b73e 4c9c 423e 6cfd a73e

stem.1.running_mean f4 [16]
-0.3098349 0.23358093 -0.002009861 -0.20682083 -0.20095772 -0.2617653 -0.17172505 0.18778728
0.07535867 0.06925613 0.028760627 -0.028540375 0.04553606 0.09871857 -0.098956846 -0.06821385
00000000: aea2 9ebe d72f 6f3e dfb7 03bb d7c8 53be
00000010: dcc7 4dbe 1a06 86be b1d8 2fbe 4f4b 403e
00000020: a555 9a3d 28d6 8d3d 689b eb3c 81cd e9bc
00000030: 0584 3a3d f62c ca3d e3a9 cabd b4b3 8bbd

stem.1.running_var f4 [16]
39.10786 79.162865 21.448034 60.3565 133.91422 50.665638 47.353046 70.09094
57.32286 16.376024 23.74149 65.727905 19.240818 41.520367 69.220245 157.11447
00000000: 736e 1c42 6353 9e42 9395 ab41 0e6d 7142
00000010: 0aea 0543 9da9 4a42 8569 3d42 902e 8c42
00000020: 9c4a 6542 1902 8341 92ee bd41 b074 8342
00000030: 32ed 9941 db14 2642 c470 8a42 4e1d 1d43

layer1.0.conv1.weight f4 [16, 16, 3, 3]
-0.040091995 0.05095131 -0.07110528 -0.024792675 0.09293389 -0.025571154 0.028095087 0.06603873
0.01202737 0.07033985 0.12540047 0.087075345 -0.015857195 -0.01615272 0.058218323 -0.04422516
-0.043129455 -0.0607457 -0.1642105 -0.08673199 -0.016920147 0.08552018 0.24554317 -0.07955351
-0.065620996 -0.16565555 0.021452745 -0.012822112 -0.08390743 -0.06929007 -0.0050652544 -0.0764589
-0.075342044 0.09173693 0.13978416 0.030222423 0.016173664 0.11815957 -0.10236739 -0.017084334
0.13859154 -0.08160121 -0.17483938 -0.13646485 -0.25277522 -0.010813178 0.024603132 -0.020116162
-0.03757778 0.058957886 -0.01250445 -0.04135337 0.042400673 0.020557232 0.02392416 0.043475535
-0.008536207 0.11775939 0.04670587 -0.059380513 0.016178524 -0.01744042 -0.0048126043 -0.14931554
-0.35740006 -0.08418589 0.022837639 0.07332677 -0.055011984 -0.01869055 -0.019394299 -0.037040904
-0.01144589 -0.03891825 -0.05494607 0.03587037 0.08570275 0.05280925 0.014583887 0.16012453
0.2029935 -0.040116727 -0.05558238 -0.10234963 -0.07963878 0.70631963 -0.08190895 -0.05913621
-0.11822847 -0.12721093 0.09674523 -0.14037658 -0.01733985 0.05236352 0.053108357 0.021258473
-0.10740789 0.02048344 0.014802389 0.0037437244 0.06868267 -0.044811875 0.0313036 -0.019226547
-0.024700806 0.013717265 0.0067797084 -0.020555928 -0.07298881 -0.038298085 0.029777698 0.04038012
0.042778485 -0.1513655 -0.027764779 0.12255476 -0.070512824 0.016900048 0.086092405 0.108125545
0.14825371 -0.1450815 -0.052925088 -0.04780587 -0.011469912 0.11182071 0.006657737 -0.010003445
-0.025899582 0.04682517 -0.21822022 -0.15665238 0.05929625 -0.06816563 0.039145287 0.014945203
-0.019836964 -0.008275981 -0.13814226 -0.073682785 0.07204152 -0.10803453 -0.0012751457 0.029981736
-0.056908436 0.010290498 0.05618257 -0.006714044 -0.011860681 0.022866346 -0.053060554 -0.0052094287
0.016349537 -0.08271837 -0.04713214 0.048102215 -0.020288102 0.06734128 0.10310334 -0.040525768
-0.004156004 0.13127689 0.05589785 0.13674763 0.019331822 -0.22849448 -0.29423532 -0.073587075
0.13379596 0.22453274 0.067271255 -0.06778483 -0.07873083 -0.06530219 -0.033492025 0.0101234205
0.012318567 0.026839815 0.02163035 0.066886865 0.0071304403 0.029540313 0.056684643 0.005415856
-0.08933562 0.014003063 -0.043692138 -0.06542619 0.070898175 0.008197535 -0.019978926 -0.026125902
0.008580779 -0.021545928 0.003908769 0.03421565 -0.007841253 -0.010360574 -0.19750293 0.023465581
0.20564781 -0.27028286 0.01990534 0.24584171 -0.10363202 0.06509712 0.1793869 0.001322547
0.15991646 0.11548366 -0.19031286 -0.1554918 -0.009142727 0.056987345 0.059607334 0.053017225
0.018853532 0.008811715 0.032109823 0.0183196 0.049874805 0.023646167 -0.061941516 -0.066827565
-0.08258515 0.114783 0.19776613 0.014012325 -0.06572695 -0.3798859 -0.21444973 0.09439042
0.32949212 0.037625417 0.016978078 0.027450917 0.003695112 -0.010908522 -0.0422439 -0.03493492
0.079694174 0.043916646 -0.06892926 0.037483778 -0.037280664 -0.029489044 0.035994586 0.050404098
-0.06209852 -0.0063865855 -0.0054606223 2.970916e-05 0.0037171512 -0.0698874 -0.03240187 0.005338034
00000000: 8137 24bd 52b2 503d a59f 91bd 021a cbbc
00000010: 2054 be3d 997a d1bc ab27 e63c 503f 873d
00000020: 720e 453c 570e 903d fb68 003e 8f54 b23d
00000030: f3e6 81bc b652 84bc 5676 6e3d 7125 35bd
00000040: 83a8 30bd 7cd0 78bd cc26 28be 8ba0 b1bd
00000050: 1f9c 8abc 3425 af3d ab6f 7b3e f3ec a2bd
00000060: 4d64 86bd 9ca1 29be abbd af3c d613 52bc
00000070: a9d7 abbd f4e7 8dbd 6ffa a5bb 7c96 9cbd
00000080: ee4c 9abd 92e0 bb3d 9423 0f3e 0495 f73c
00000090: a27e 843c a5fd f13d ffa5 d1bd 72f4 8bbc
000000a0: f1ea 0d3e 891e a7bd 1809 33be 71bd 0bbe
000000b0: c16b 81be c129 31bc 828c c93c a6ca a4bc
000000c0: 29eb 19bd d37d 713d 77df 4cbc 2762 29bd
000000d0: 54ac 2d3d a467 a83c 9afc c33c 6713 323d
000000e0: 72db 0bbc d62b f13d a84e 3f3d fb38 73bd
000000f0: d388 843c 36df 8ebc 0db3 9dbb 2ce6 18be
00000100: 24fd b6be a769 acbd 0016 bb3c 582c 963d
00000110: 3f54 61bd ed1c 99bc cbe0 9ebc 34b8 17bd
00000120: 8b87 3bbc be68 1fbd 210f 61bd cfec 123d
00000130: ec84 af3d 834e 583d 41f1 6e3c aff7 233e
00000140: 87dd 4f3e 7051 24bd 5aaa 63bd af9c d1bd
00000150: a819 a3bd 5dd1 343f e1bf a7bd cf38 72bd
00000160: c521 f2bd 9543 02be 5d22 c63d e1be 0fbe
00000170: 4d0c 8ebc 217b 563d 2688 593d 4026 ae3c
00000180: abf8 dbbd e3cc a73c b885 723c 4659 753b
00000190: 80a9 8c3d a88c 37bd 3438 003d fe80 9dbc
000001a0: 5859 cabc 61be 603c 5128 de3b e864 a8bc
000001b0: 287b 95bd 74de 1cbd 5cf0 f33c a065 253d
000001c0: 7e38 2f3d 8fff 1abe f672 e3bc fdfd fa3d
000001d0: 0769 90bd f871 8a3c 3751 b03d ed70 dd3d
000001e0: d2cf 173e 3f90 14be fac7 58bd 17d0 43bd
000001f0: 4cec 3bbc 4202 e53d 2529 da3b 7de5 23bc
00000200: 5c2b d4bc c0cb 3f3d 1f75 5fbe 7b69 20be
00000210: a0e0 723d 6c9a 8bbd cf56 203d badc 743c
00000220: 2181 a2bc fb97 07bc 2a75 0dbe 00e7 96bd
00000230: 818a 933d 3541 ddbd ca22 a7ba 429c f53c
00000240: d218 69bd 7a99 283c b21f 663d 7c01 dcbb
00000250: 4d53 42bc 3452 bb3c 0656 59bd dbb3 aabb
00000260: 77ef 853c 4068 a9bd a10d 41bd d406 453d
00000270: 3c33 a6bc 3aea 893d d827 d33d 59fe 25bd
00000280: 172f 88bb 736d 063e 25f5 643d 9207 0c3e
00000290: c55d 9e3c 75fa 69be 03a6 96be d2b4 96bd
000002a0: cf01 093e e9eb 653e 83c5 893d c6d2 8abd
000002b0: a13d a1bd 28bd 85bd ef2e 09bd b4dc 253c
000002c0: d1d3 493c 2cdf db3c 2232 b13c fbfb 883d
000002d0: 78a6 e93b 87fe f13c 282e 683d 7e77 b13b
000002e0: 98f5 b6bd 1a6d 653c 87f6 32bd 2bfe 85bd
000002f0: 1033 913d f44e 063c d8aa a3bc fd05 d6bc
00000300: 6596 0c3c 1681 b0bc 2215 803b b625 0c3d
00000310: 9978 00bc 66bf 29bc 353e 4abe e43a c03c
00000320: 5795 523e 8462 8abe 8610 a33c eebd 7b3e
00000330: 063d d4bd a451 853d 33b1 373e 5059 ad3a
00000340: 24c1 233e b282 ec3d 60e1 42be 3e39 1fbe
00000350: 60cb 15bc 906b 693d d226 743d 9728 593d
00000360: b972 9a3c 035f 103c 9785 033d fc12 963c
00000370: 8649 4c3d 9bb5 c13c 63b6 7dbd e4dc 88bd
00000380: 6722 a9bd 5913 eb3d 3483 4a3e f393 653c
00000390: da9b 86bd 6880 c2be b698 5bbe c44f c13d
000003a0: 31b3 a83e 1c1d 1a3d 9c15 8b3c bfe0 e03c
000003b0: b129 723b a8b9 32bc f107 2dbd eb17 0fbd
000003c0: b336 a33d f1e1 333d c92a 8dbd 9788 193d
000003d0: 9cb3 18bd 0293 f1bc 0f6f 133d 8774 4e3d
000003e0: 055b 7ebd 9046 d1bb 05ef b2bb ef37 f937
000003f0: 739b 733b 2021 8fbd d3b7 04bd adea ae3b

layer1.0.bn1.weight f4 [16]
0.43024954 0.41857347 0.32700136 0.32174674 0.48493627 0.3214089 0.29895064 0.24885693
0.30965778 0.28623953 0.34189346 0.43075532 0.36414263 0.30004114 0.42825782 0.3985668
00000000: ab49 dc3e 434f d63e b96c a73e fdbb a43e
00000010: 9149 f83e b58f a43e 0f10 993e 5ad4 7e3e
00000020: 778b 9e3e fd8d 923e a90c af3e f68b dc3e
00000030: e770 ba3e fe9e 993e 9c44 db3e f310 cc3e

layer1.0.bn1.bias f4 [16]
0.18652233 0.28511932 -0.070954174 0.16537052 -0.2972951 0.17307675 0.10206549 -0.14155518
0.21645717 0.13023831 0.21725656 -0.16823895 -0.18062693 -0.030655185 0.5050025 0.2763182
00000000: b6ff 3e3e 29fb 913e 6c50 91bd e456 293e
00000010: 1037 98be 083b 313e b607 d13d d7f3 10be
00000020: f3a6 5d3e 315d 053e 8178 5e3e d546 2cbe
00000030: 44f6 38be 9520 fbbc d847 013f 9479 8d3e

layer1.0.bn1.running_mean f4 [16]
-0.37913015 0.18551426 -0.23399341 -0.7953795 -0.44046423 -0.8314635 -0.735464 0.8569058
-0.674507 -0.15533546 -0.89191604 -0.15662278 -0.660767 -0.7873015 -0.3257566 -0.75399375
00000000: 591d c2be 73f7 3d3e f89b 6fbe fe9d 4bbf
00000010: 8784 e1be cbda 54bf 5e47 3cbf 2e5e 5b3f
00000020: 7eac 2cbf 4210 1fbe 9c54 64bf b961 20be
00000030: 0728 29bf 978c 49bf 92c9 a6be bc05 41bf

layer1.0.bn1.running_var f4 [16]
0.28763255 0.1615495 0.16481344 0.13504645 0.27569014 0.20490591 0.10845716 0.0683809
0.124451 0.17696993 0.29675567 0.12318647 0.15200917 0.06357403 0.13201314 0.2339318
00000000: 9344 933e 3b6d 253e dbc4 283e 9e49 0a3e
00000010: 4227 8d3e dbd2 513e ca1e de3d 490b 8c3d
00000020: 2ae0 fe3d 9b37 353e 5cf0 973e 3049 fc3d
00000030: 4ba8 1b3e 1a33 823d 742e 073e d18b 6f3e

layer1.0.conv2.weight f4 [16, 16, 3, 3]
0.0047319285 -0.0899861 0.057186518 0.10073388 -0.024931425 0.01448096 -0.0006806725 0.0016489355
0.15542711 0.06570795 0.018355977 -0.028850693 0.06351813 0.02406062 0.10188579 0.025071077
-0.027805109 0.040134575 -0.0036936381 -0.082592666 -0.0684204 -0.08528803 -0.06817141 -0.019253219
-0.063827686 -0.032113615 0.065734975 0.04463759 -0.05668456 -0.01204408 0.037779015 -0.08245617
-0.07272538 -0.015470049 -0.0046526385 0.005498994 -0.005728307 0.01641433 0.1216646 0.0007864776
-0.023023928 0.08251957 -0.011696911 0.013637402 0.04208489 -0.025601285 0.1562197 0.2102506
-0.0038871514 0.09197521 0.19998525 -0.07424801 -0.13209687 0.0058145826 -0.09563455 -0.061094247
0.061026197 -0.12497655 -0.12940073 0.011306909 0.0022243734 -0.06749145 0.055853385 -0.016357604
-0.007754291 -0.0073665488 -0.021168822 0.00913788 0.04152532 -0.04370458 -0.0072581535 0.03897859
0.06968261 -0.07236113 -0.19635732 0.106956854 0.00538055 -0.21475238 0.08913852 0.13838853
-0.01752763 -0.0611509 -0.097424775 0.08019985 -0.058910694 -0.10306046 0.07075895 0.0031777862
-0.0776252 0.030844556 -0.03168699 -0.12675473 0.022504719 0.004025395 -0.120521896 -0.010013639
0.094230466 -0.049093552 0.01456053 -0.08852442 -0.12106527 -0.10104304 -0.108378164 -0.12924834
-0.14569719 -0.012289879 -0.018348144 -0.027290048 -0.031471405 -0.017443618 -0.01116214 0.04713231
0.022637663 0.07043569 -0.009990145 -0.051710926 0.02152682 -0.013716881 0.051673636 0.01873528
-0.037428506 0.083723746 0.039789855 0.0604728 0.15366174 0.11284584 -0.04086023 0.026007688
-0.06255459 -0.07460812 -0.015840808 -0.00011086992 0.020382887 -0.03299068 -0.016652953 -0.04089409
-0.008211387 0.051327072 -0.047220137 -0.071786046 0.03475908 0.10122152 0.04136592 0.114847
0.06895469 -0.08824724 0.021986896 0.18275265 -0.13876164 -0.09434402 0.070625335 -0.046799958
-0.033638697 0.04785565 -0.006587067 -0.10150676 -0.0026968694 0.038054787 -0.013587979 0.05402246
-0.0036391453 -0.10541578 0.12383378 -0.011760561 0.006875994 0.073959514 0.041204672 0.054002926
-0.06701797 0.033457194 -0.00052175997 -0.06745916 -0.002085148 -0.026365928 0.032676265 0.020859616
0.010617686 0.011876026 -0.008024324 -0.038121488 -0.09861896 0.063670956 -0.027651856 -0.12981026
0.07294497 -0.0017844816 -0.04904433 -0.0125261005 -0.012161498 0.019140283 0.033450224 -0.043434683
0.060417112 -0.022076506 -0.18393089 0.036586225 0.020827552 -0.11787217 -0.008950875 0.065906316
0.016523598 -0.026618892 0.03604595 -0.06945035 0.015050505 0.055214252 -0.08464692 -0.009618354
-0.0046839644 0.020684404 0.00032846222 0.011770928 0.003264586 0.050662547 0.04776831 0.008749113
0.024215348 0.07258503 -0.0003029654 0.022340456 -0.0007009693 -0.04057129 0.03923396 0.0036699725
-0.019852502 0.064638436 0.032214884 -0.057061054 0.07133373 0.08955886 -0.07811115 0.028501663
0.11860218 -0.035635814 -0.047148325 0.04429987 0.159979 -0.062643014 -0.09445979 0.15433057
-0.05438607 0.059791896 0.11029252 0.0016699258 -0.016749583 0.008095175 -0.04194182 -0.0056157527
0.04718504 -0.06454164 -0.047053553 0.05954224 0.00940843 -0.06513719 -0.029240545 -0.0067177583
00000000: 4b0e 9b3b a24a b8bd 693c 6a3d 914d ce3d
00000010: fd3c ccbc 8c41 6d3c 296f 32ba 1821 d83a
00000020: 4928 1f3e e491 863d 465f 963c 4a58 ecbc
00000030: cb15 823d c71a c53c 7fa9 d03d dc61 cd3c
00000040: 8ac7 e3bc 2764 243d f710 72bb 5826 a9bd
00000050: ff1f 8cbd 7eab aebd 749d 8bbd edb8 9dbc
00000060: 17b8 82bd 9189 03bd 0fa0 863d e8d5 363d
00000070: 122e 68bd 8854 45bc 2bbe 1a3d c8de a8bd
00000080: 0bf1 94bd 1776 7dbc 2975 98bb e830 b43b
00000090: 86b4 bbbb 5877 863c 4a2b f93d 9e2b 4e3a
000000a0: ad9c bcbc 0500 a93d 67a4 3fbc 696f 5f3c
000000b0: 3561 2c3d c9b9 d1bc 0ff8 1f3e ef4b 573e
000000c0: 94bf 7ebb 805d bc3d efc8 4c3e 570f 98bd
000000d0: 6744 07be 4188 be3b 0cdc c3bd f63d 7abd
000000e0: 9bf6 793d b5f3 ffbd a081 04be 9d40 393c
000000f0: cbc6 113b f538 8abd 85c6 643d 6200 86bc
00000100: b517 febb 1763 f1bb 3d6a adbc 0cb7 153c
00000110: 7416 2a3d 9303 33bd ced5 edbb 04a8 1f3d
00000120: c2b5 8e3d 1232 94bd e511 49be 320c db3d
00000130: 534f b03b 0ce8 5bbe 428e b63d b9b5 0d3e
00000140: 1b96 8fbc 5e79 7abd a486 c7bd d23f a43d
00000150: 574c 71bd 5d11 d3bd 12ea 903d 6842 503b
00000160: f6f9 9ebd b9ad fc3c 38ca 01bd fecb 01be
00000170: d15b b83c 76e7 833b 2fd4 f6bd 3f10 24bc
00000180: e7fb c03d 5216 49bd 4a8f 6e3c 4b4c b5bd
00000190: 11f1 f7bd a7ef cebd 5ff5 ddbd ad59 04be
000001a0: a531 15be 7d5b 49bc d94e 96bc 618f dfbc
000001b0: 29e8 00bd ebe5 8ebc 69e1 36bc cf0d 413d
000001c0: 9f72 b93c 9640 903d b5ad 23bc d6ce 53bd
000001d0: 0359 b03c c5bc 60bc bca7 533d bb7a 993c
000001e0: a24e 19bd 5b77 ab3d b0fa 223d 54b2 773d
000001f0: 8159 1d3e b81b e73d 0e5d 27bd 130e d53c
00000200: 9f1c 80bd 24cc 98bd 95c4 81bc d682 e8b8
00000210: 03fa a63c 3c21 07bd c66b 88bc 9080 27bd
00000220: 0e89 06bc 563c 523d e769 41bd 9004 93bd
00000230: 895f 0e3d 3a4d cf3d 506f 293d e734 eb3d
00000240: 1e38 8d3d f8ba b4bd dd1d b43c 8323 3b3e
00000250: 8817 0ebe 7037 c1bd 04a4 903d 50b1 3fbd
00000260: bbc8 09bd 4904 443d 53d8 d7bb c7e2 cfbd
00000270: f6bd 30bb 56df 1b3d 1da0 5ebc a846 5d3d
00000280: ba7e 6ebb 3ae4 d7bd 919c fd3d 5eaf 40bc
00000290: 0550 e13b 1678 973d 3bc6 283d 2c32 5d3d
000002a0: b840 89bd 690a 093d b8c6 08ba 0728 8abd
000002b0: faa6 08bb 5cfd d7bc 8cd7 053d c9e1 aa3c
000002c0: cef5 2d3c aa93 423c 7478 03bc 4725 1cbd
000002d0: bdf8 c9bd eb65 823d 2586 e2bc fbec 04be
000002e0: 2c64 953d 44e5 e9ba b5e2 48bd 463a 4dbc
000002f0: 0541 47bc 15cc 9c3c 1a03 093d 91e8 31bd
00000300: ef77 773d cad9 b4bc 6158 3cbe 70db 153d
00000310: 8b9e aa3c f766 f1bd b1a6 12bc e4f9 863d
00000320: 7f5c 873c dd0f dabc eba4 133d fc3b 8ebd
00000330: 6596 763c 5728 623d 5d5b adbd 4d96 1dbc
00000340: f17b 99bb 5772 a93c 7435 ac39 dada 403c
00000350: aaf2 553b 8883 4f3d b4a8 433d 7158 0f3c
00000360: 445f c63c 76a7 943d 54d7 9eb9 5503 b73c
00000370: 41c1 37ba 152e 26bd cab3 203d ec83 703b
00000380: b7a1 a2bc 2861 843d c1f3 033d dab8 69bd
00000390: 6b17 923d a36a b73d bdf8 9fbd 527c e93c
000003a0: b3e5 f23d dcf6 11bd 9a1e 41bd c873 353d
000003b0: 89d1 233e fb4a 80bd 2274 c1bd d508 1e3e
000003c0: eec3 5ebd 59e8 743d 0be1 e13d 69e1 da3a
000003d0: 6c36 89bc a0a1 043c 30cb 2bbd 5904 b8bb
000003e0: 1a45 413d 682e 84bd 3abb 40bd 90e2 733d
000003f0: d125 1a3c a666 85bd de89 efbc a420 dcbb

layer1.0.bn2.weight f4 [16]
0.3099501 0.41649225 0.34668562 0.23495664 0.28722522 0.3350851 0.54940075 0.4808844
0.524118 0.70741296 0.44022432 0.6375562 0.7139495 0.41217536 0.3973315 0.33286166
00000000: c8b1 9e3e 793e d53e c780 b13e 7998 703e
00000010: 2f0f 933e 4690 ab3e 87a5 0c3f 7b36 f63e
00000020: 992c 063f 0419 353f 1565 e13e e236 233f
00000030: 65c5 363f a608 d33e 096f cb3e d86c aa3e

layer1.0.bn2.bias f4 [16]
0.26038173 0.06293007 0.05814244 0.21951047 0.19380729 0.40385112 -0.3851539 0.13747238
0.17435725 -0.19478613 -0.24433617 0.34756157 0.29862764 -0.53577626 -0.11311475 0.09480951
00000000: c150 853e 7be1 803d c426 6e3d 5ac7 603e
00000010: 6b75 463e 93c5 ce3e e432 c5be 8fc5 0c3e
00000020: b58a 323e 0476 47be 4333 7abe 97f3 b13e
00000030: b9e5 983e a228 09bf b5a8 e7bd 7d2b c23d

layer1.0.bn2.running_mean f4 [16]
-0.05195567 0.034600075 0.21533155 0.07689457 0.23970331 0.055699237 0.056523487 0.22874925
-0.2832394 0.10934811 -0.3472806 -0.17741866 -0.11766473 0.23714967 0.0008052238 0.00018547405
00000000: 78cf 54bd cfb8 0d3d e07f 5c3e e67a 9d3d
00000010: c974 753e e224 643d 2c85 673d 3e3d 6a3e
00000020: c104 91be e7f1 df3d c3ce b1be 3dad 35be
00000030: 35fa f0bd 5dd7 723e a815 533a d07b 4239

layer1.0.bn2.running_var f4 [16]
0.11221764 0.15290733 0.12007304 0.10074297 0.18695463 0.20317246 0.12924534 0.30280757
0.18967895 0.26522425 0.14566495 0.35946795 0.20290437 0.09004848 0.14670154 0.19303168
00000000: 5dd2 e53d bd93 1c3e dbe8 f53d 5552 ce3d
00000010: 0971 3f3e 710c 503e e458 043e 9809 9b3e
00000020: 333b 423e 79cb 873e 3129 153e 2f0c b83e
00000030: 2ac6 4f3e 566b b83d ee38 163e 19aa 453e

layer1.1.conv1.weight f4 [16, 16, 3, 3]
0.08139298 0.0736133 0.04757765 0.07479471 0.10049617 0.088263646 0.02212431 0.10374414
0.08518 -0.0712958 0.04244697 0.04832106 0.011625785 0.11430561 -0.11992362 -0.053320497
-0.15068287 -0.15879525 0.08434794 0.0026647574 -0.0375199 -0.034971602 -0.08519175 0.116631955
0.0019964527 0.111331195 0.11355332 -0.080435246 0.084309 0.15616933 0.107696824 0.0468852
-0.08590953 0.046039823 -0.1736948 -0.049745068 -0.17087813 -0.08175787 0.05735251 -0.13608891
0.12950039 0.11478031 -0.016883986 0.19558929 0.026729558 0.076399475 -0.015767785 0.008348727
-0.01466431 -0.08196056 -0.005577592 -0.090014614 -0.07271199 -0.0157042 0.066092774 -0.018174559
-0.028629567 -0.027180217 -0.11182928 -0.02606792 -0.07242221 -0.051445942 0.1037205 0.12783456
0.22822505 -0.16949606 0.046460085 -0.19632559 -0.22916038 -0.08565414 -0.17440796 0.040511314
-0.17018393 0.039748568 0.14090648 -0.1064634 0.28575814 -0.14187652 0.012296042 -0.20705871
-0.22635566 0.10209402 0.0020612949 -0.20212156 0.10646703 -0.28057164 -0.033714462 -0.23307149
-0.16329256 0.26713097 -0.09876666 0.026500445 -0.022773547 -0.053033415 0.043765612 0.016302126
0.05973341 -0.026405178 -0.006993888 -0.10941865 -0.22547597 0.014011316 -0.23978238 0.17627043
0.2550182 0.09699748 0.12589322 -0.23100221 -0.104228914 -0.11157049 0.09105557 -0.153055
0.2556302 0.10491751 0.15154982 -0.0059004272 -0.25605902 -0.07693802 -0.0777516 -0.05824271
-0.081885524 0.00795029 0.040786285 -0.008718423 0.010283307 -0.04754221 -0.023475867 -0.06278131
0.03816796 -0.0803147 0.0482047 0.17247787 -0.08745341 0.05975065 -0.09151306 0.09062264
0.09927241 0.03367221 0.13980576 0.027611403 -0.18496159 -0.09494488 -0.25831527 -0.20775947
0.070095465 -0.028179882 -0.10453805 0.10316616 0.12306645 -0.0610908 -0.09699865 0.033915732
0.02153618 0.0060456195 0.08580526 -0.06654892 -0.13950369 0.00788233 0.02298467 -0.047938768
-0.15688778 -0.06694988 -0.120071724 -0.012415096 0.0629098 -0.04565552 -0.11825336 -0.07336759
0.099598005 -0.029110916 -0.18231088 -0.066411436 -0.035690058 0.045292087 -0.060611784 -0.10621009
-0.04785209 0.0146192545 -0.0323117 -0.12074335 -0.0035247703 0.09616654 -0.058557995 -0.031547796
0.14356025 0.0851914 -0.1532289 0.057984784 -0.04256641 0.01973781 -0.09611675 -0.05018971
0.1294689 -0.0212212 -0.11691077 0.08130531 0.14762433 0.023351997 -0.06440471 0.016410979
0.074968144 -0.1587176 -0.1258779 -0.0005196518 -0.012762059 -0.0681964 -0.06462579 -0.2438815
-0.12120245 0.018072397 -0.02834349 -0.1864389 -0.14154711 0.08842351 0.08012867 -0.14920737
-0.061031368 0.029664718 0.11333624 0.025803609 -0.026378147 0.119681776 -0.0092509305 0.008304103
-0.04535789 -0.0014987893 -0.23022781 -0.051376168 0.23475191 -0.06052333 -0.16411738 -0.1306357
0.26383704 -0.120017596 -0.06324522 -0.07511171 -0.04215936 0.0074805673 -0.005986989 0.043292448
-0.03935483 0.01548343 0.048446946 0.11469038 0.14168027 -0.059113678 -0.22976588 0.11195966
0.17950216 -0.13530286 -0.15209253 0.073672146 -0.025355924 0.06520488 -0.0699984 -0.15102659
00000000: 5db1 a63d 92c2 963d c8e0 423d f82d 993d
00000010: f0d0 cd3d 92c3 b43d 0a3e b53c cf77 d43d
00000020: da72 ae3d 8803 92bd e0dc 2d3d 4eec 453d
00000030: 147a 3e3c 0f19 ea3d 849a f5bd 9866 5abd
00000040: 9c4c 1abe 399b 22be 9dbe ac3d 36a3 2e3b
00000050: 77ae 19bd 623e 0fbd 0379 aebd bcdc ee3d
00000060: ebd6 023b 9c01 e43d a58e e83d 3cbb a4bd
00000070: 32aa ac3d daea 1f3e 2790 dc3d b20a 403d
00000080: 56f1 afbd 4194 3c3d 0ddd 31be 7cc1 4bbd
00000090: adfa 2ebe ac70 a7bd 77ea 6a3d e45a 0bbe
000000a0: c09b 043e f011 eb3d 4950 8abc 8f48 483e
000000b0: f2f7 da3c 5477 9c3d 712b 81bc 19c9 083c
000000c0: 9342 70bc f0da a7bd 3cc4 b6bb 9559 b8bd
000000d0: 06ea 94bd 18a6 80bc a65b 873d d0e2 94bc
000000e0: 8e88 eabc 0ca9 debc c006 e5bd 648c d5bc
000000f0: 1852 94bd fbb8 52bd 6a6b d43d 10e7 023e
00000100: d4b3 693e 6090 2dbe ee4c 3e3d 9309 49be
00000110: 05a9 6abe 706b afbd 0098 32be 31ef 253d
00000120: b244 2ebe 65cf 223d ca49 103e 7c09 dabd
00000130: e44e 923e 1448 11be 5775 493c 3307 54be
00000140: c7c9 67be ab16 d13d ca16 073b f4f8 4ebe
00000150: 630b da3d 16a7 8fbe 2d18 0abd 4baa 6ebe
00000160: 2a36 27be 64c5 883e 2d46 cabd 7617 d93c
00000170: 978f babc 9139 59bd 9243 333d 098c 853c
00000180: 05ab 743d ac4f d8bc fc2c e5bb e316 e0bd
00000190: 2ce3 66be b88f 653c 8389 75be 3c80 343e
000001a0: bf91 823e 9da6 c63d 27ea 003e d88b 6cbe
000001b0: f875 d5bd 127f e4bd 587b ba3d 73ba 1cbe
000001c0: f6e1 823e fede d63d e02f 1b3e 5f58 c1bb
000001d0: 2b1a 83be ae91 9dbd 3b3c 9fbd e88f 6ebd
000001e0: 99b3 a7bd ef41 023c 850f 273d b7d7 0ebc
000001f0: 517b 283c 9fbb 42bd 7650 c0bc 7d93 80bd
00000200: 0256 1c3d 097c a4bd 4b72 453d 0a9e 303e
00000210: c61a b3bd 19bd 743d 336b bbbd 5d98 b93d
00000220: 554f cb3d dfeb 093d 3e29 0f3e 4f31 e23c
00000230: 9266 3dbe 7672 c2bd e641 84be e6be 54be
00000240: 368e 8f3d 7fd9 e6bc 0c18 d6bd c848 d33d
00000250: 430a fc3d 593a 7abd 3aa7 c6bd 39eb 0a3d
00000260: a56c b03c 551a c63b abba af3d cd4a 88bd
00000270: 0eda 0ebe e324 013c 594a bc3c 715b 44bd
00000280: 31a7 20be 051d 89bd 2ae8 f5bd b068 4bbc
00000290: dad6 803d 4801 3bbd d12e f2bd bf41 96bd
000002a0: 0afa cb3d 047a eebc b4af 3abe b802 88bd
000002b0: bd2f 12bd 3284 393d 1044 78bd ad84 d9bd
000002c0: 8e00 44bd 9985 6f3c 4659 04bd 4a48 f7bd
000002d0: d5ff 66bb f7f2 c43d 82da 6fbd 4338 01bd
000002e0: 7501 133e d478 ae3d 09e8 1cbe 7481 6d3d
000002f0: 1e5a 2ebd 30b1 a13c dcd8 c4bd ba93 4dbd
00000300: 7f93 043e 15d8 adbc ea6e efbd 6683 a63d
00000310: d52a 173e b04c bf3c 9ee6 83bd 5170 863c
00000320: e688 993d de86 22be 23e6 00be 3e39 08ba
00000330: f517 51bc 8eaa 8bbd 875a 84bd 12bc 79be
00000340: fd38 f8bd 900c 943c 9b30 e8bc d7e9 3ebe
00000350: baf1 10be 6317 b53d 801a a43d d1c9 18be
00000360: 07fc 79bd 6c03 f33c d51c e83d 1762 d33c
00000370: fc16 d8bc b81b f53d 3791 17bc ef0d 083c
00000380: 32c9 39bd 0673 c4ba d7c0 6bbe d16f 52bd
00000390: ce62 703e 50e7 77bd 630e 28be 5dc5 05be
000003a0: a615 873e c9cb f5bd b686 81bd 2bd4 99bd
000003b0: 4baf 2cbd 8c1f f53b 812e c4bb 6c53 313d
000003c0: 8832 21bd 36ae 7d3c 4e70 463d cae2 ea3d
000003d0: a214 113e 2f21 72bd bf47 6bbe 1b4b e53d
000003e0: 6acf 373e d58c 0abe 25be 1bbe 6ce1 963d
000003f0: 3ab7 cfbc 238a 853d 525b 8fbd b7a6 1abe

layer1.1.bn1.weight f4 [16]
0.582366 0.53580064 0.47108302 0.48028848 0.53154004 0.38372868 0.5641964 0.43751082
0.55821365 0.48863766 0.5313261 0.5417528 0.4410409 0.40040565 0.4429087 0.5230876
00000000: f015 153f 3b2a 093f cb31 f13e 5fe8 f53e
00000010: 0213 083f 1678 c43e 2d6f 103f 6b01 e03e
00000020: 17e7 0e3f b72e fa3e fd04 083f 50b0 0a3f
00000030: 1dd0 e13e f801 cd3e eec4 e23e 12e9 053f

layer1.1.bn1.bias f4 [16]
-0.16320305 -0.1550493 0.039819762 -0.15969121 -0.23428883 -0.21660927 -0.124604225 -0.0848495
-0.08083114 0.14554363 -0.08271376 -0.114387825 -0.07273695 -0.3219013 -0.22056618 -0.24178723
00000000: b31e 27be 3ec5 1ebe 0c1a 233d 1886 23be
00000010: 69e9 6fbe d2ce 5dbe 8030 ffbd 93c5 adbd
00000020: cc8a a5bd 6409 153e d565 a9bd 2a44 eabd
00000030: 1cf7 94bd 3fd0 a4be 1adc 61be 1297 77be

layer1.1.bn1.running_mean f4 [16]
-0.6507275 -1.1538056 -1.9348066 -0.95912385 -1.5728898 -0.41498643 -1.0911012 -0.042421453
-0.5302065 -1.4760932 -0.9839309 -1.2125158 -1.2184875 -0.94822717 -0.44110548 -0.5473815
00000000: 1496 26bf e7af 93bf bea7 f7bf 2489 75bf
00000010: 7454 c9bf 1a79 d4be 34a9 8bbf 1ec2 2dbd
00000020: 9dbb 07bf 9ff0 bcbf e5e2 7bbf b833 9bbf
00000030: 66f7 9bbf 04bf 72bf 94d8 e1be 3221 0cbf

layer1.1.bn1.running_var f4 [16]
2.3283577 1.3066835 0.95473796 0.93429905 1.1315112 0.4440489 1.1353679 0.42195293
2.6961315 1.0327346 2.5869124 1.0020369 1.4835169 0.4301459 0.6184877 1.0806108
00000000: d003 1540 6841 a73f b569 743f 392e 6f3f
00000010: 5cd5 903f 615a e33e bc53 913f 370a d83e
00000020: 6b8d 2c40 a630 843f f98f 2540 bf42 803f
00000030: e2e3 bd3f 153c dc3e 3655 1e3f 7451 8a3f

layer1.1.conv2.weight f4 [16, 16, 3, 3]
-0.25769135 -0.21405084 -0.047206752 -0.33457205 -0.45230088 -0.20396028 -0.19155312 -0.26163673
-0.12985055 0.050112095 0.10614115 0.15277621 -0.023028044 0.058586743 0.14067674 -0.08286007
0.035136633 0.11498471 0.021548979 -0.079880245 0.008426343 0.032612853 -0.030334389 0.035804477
0.06772817 0.040107258 0.07051884 -0.15514731 -0.12886213 -0.026455993 -0.17463678 -0.18302338
-0.09421458 -0.07556507 -0.03786949 0.029130612 0.02146685 0.06921141 0.028540334 -0.031039303
0.067235 0.057181057 -0.14969945 -0.08936571 0.026151855 -0.0067053996 -0.031677745 -0.007890478
-0.049942967 -0.11049351 -0.07056624 -0.081959814 -0.099084556 -0.0940298 0.08465887 0.0043940214
-0.02976616 0.0065645417 -0.07042414 -0.067834914 -0.01961801 -0.03525303 0.025963685 -0.08084725
-0.05479652 0.0410525 -0.0004030638 0.02919676 0.02008428 0.11703084 0.1300028 0.11137885
-0.012954714 -0.11769975 -0.004258527 -0.065751426 -0.2362139 -0.062063742 -0.079736866 -0.22704333
-0.06570856 0.050204523 -0.007558965 -0.011532544 0.14046708 -0.030453209 -0.03607014 0.098166704
-0.049714796 0.007708422 0.092589244 -0.040786188 0.038496774 0.0935629 -0.030878345 0.15444443
0.04642557 -0.0044092936 0.06854317 -0.11068343 0.014374022 -0.041385055 -0.15101178 -0.12145143
-0.026890157 0.0005117594 -0.048342265 0.074291065 0.0019246112 0.03831832 -0.0232172 0.055449083
0.15262672 0.035100035 -0.038678937 0.10844852 0.028416388 0.13657299 0.034481775 -0.0062411036
0.024788322 0.02534854 0.0060004094 -0.11810677 0.01619513 0.089864366 0.052822553 0.041622058
-0.072211325 0.1047715 0.16285302 0.07187884 0.11113938 0.1685681 0.0934995 -0.1330067
-0.19298394 0.001956108 -0.21942961 -0.25321698 -0.10293309 -0.14438498 -0.26705566 -0.14893079
0.07714 0.020600894 0.06692335 0.11800244 0.10828374 0.027054198 0.09087721 0.07570705
-0.05144202 0.050609276 0.053794317 0.035380084 -0.03395765 0.0732981 -0.072212 -0.012660299
-0.041608874 0.013784157 -0.13448408 -0.06809251 0.16217594 -0.15553334 -0.20133314 0.15820552
-0.1910849 -0.14342287 0.13334082 0.062165584 0.0790808 -0.13164131 0.056949355 0.09289525
-0.10124883 0.14142123 0.19629645 0.04688801 -0.11404199 0.01224971 -0.13476372 -0.12891069
0.010009389 -0.03230594 -0.11210315 -0.0018137664 -0.0068238173 0.10485181 0.019414997 -0.028538
0.12612417 0.07474454 -0.027190426 0.105401136 0.04591188 -0.061792877 -0.034842223 -0.103767835
-0.103748895 -0.087073505 -0.056754917 -0.18533932 -0.0023772581 -0.07501744 -0.015465578 -0.0799362
-0.056320414 -0.061411504 -0.051537126 -0.03655058 0.08042769 -0.060332544 -0.017693887 0.1054774
0.037785858 -0.07729094 -0.09220603 0.033532027 -0.0856159 -0.02200894 0.015523969 -0.15144704
0.07276733 0.07404972 -0.028268272 -0.060184322 0.056725394 0.03015327 -0.21401931 0.07271419
0.08215657 -0.1239431 0.056310657 -0.04872769 -0.06926992 -0.035130322 -0.15818173 -0.1621803
0.004839258 -0.07522783 0.06381456 -0.006247122 0.09602065 0.0505417 0.07999991 0.13420433
0.03784636 -0.049561612 0.01822728 -0.001927013 0.0018899057 0.065933794 0.09622868 0.08605909
00000000: 1ff0 83be 2530 5bbe de5b 41bd 074d abbe
00000010: fb93 e7be f7da 50be 8026 44be 40f5 85be
00000020: 8bf7 04be 5742 4d3d 8860 d93d 5e71 1c3e
00000030: 4fa5 bcbc a7f8 6f3d 900d 103e 8ab2 a9bd
00000040: 6eeb 0f3d 1b7d eb3d 7c87 b03c 4198 a3bd
00000050: a50e 0a3c 0e95 053d d37f f8bc b7a7 123d
00000060: 11b5 8a3d 8247 243d 2e6c 903d f0de 1ebe
00000070: 6ff4 03be 3dba d8bc fcd3 32be 7b6a 3bbe
00000080: 93f3 c0bd dcc1 9abd 0a1d 1bbd 52a3 ee3c
00000090: 3fdb af3c b6be 8d3d 6bcd e93c 2346 febc
000000a0: 81b2 893d af36 6a3d d04a 19be 5f05 b7bd
000000b0: 6a3c d63c f8b8 dbbb 86c0 01bd 1047 01bc
000000c0: ff90 4cbd 6c4a e2bd 0885 90bd 8cda a7bd
000000d0: d8ec cabd b292 c0bd a161 ad3d b9fb 8f3b
000000e0: 29d8 f3bc 5e1b d73b 883a 90bd 08ed 8abd
000000f0: f3b5 a0bc 7b65 10bd cbb1 d43c 3e93 a5bd
00000100: 5172 60bd ab26 283d 4f52 d3b9 0b2e ef3c
00000110: ca87 a43c ddad ef3d 741f 053e 981a e43d
00000120: 0240 54bc 910c f1bd 1d8b 8bbb afa8 86bd
00000130: 0ee2 71be 8d36 7ebd 154d a3bd 0c7e 68be
00000140: 3692 86bd 42a3 4d3d 32b1 f7bb fff2 3cbc
00000150: 9ad6 0f3e 0279 f9bc 48be 13bd a00b c93d
00000160: bea1 4bbd ee96 fc3b 6e9f bd3d 6b0f 27bd
00000170: cbae 1d3d e89d bf3d 95f4 fcbc ae26 1e3e
00000180: bd28 3e3d d67b 90bb 5d60 8c3d ffad e2bd
00000190: 0581 6b3c 6083 29bd d5a2 1abe 87bb f8bd
000001a0: bf48 dcbc 9827 063a 8a02 46bd ea25 983d
000001b0: 3c43 fc3a acf3 1c3d ff31 bebc 941e 633d
000001c0: 2e4a 1c3e 0ec5 0f3d ce6d 1ebd 421a de3d
000001d0: 7cc9 e83c cad9 0b3e c33c 0d3d 2c82 ccbb
000001e0: e110 cb3c bea7 cf3c 159f c43b f6e1 f1bd
000001f0: a6ab 843c cf0a b83d 765c 583d e47b 2a3d
00000200: 88e3 93bd 7192 d63d f1c2 263e 3735 933d
00000210: 0b9d e33d 1e9d 2c3e aa7c bf3d e932 08be
00000220: 959d 45be 0c32 003b 28b2 60be a8a5 81be
00000230: 95ce d2bd a8d9 13be 85bb 88be 5081 18be
00000240: 94fb 9d3d 35c3 a83c 1c0f 893d 43ab f13d
00000250: dec3 dd3d c4a0 dd3c d51d ba3d 4c0c 9b3d
00000260: deb4 52bd ac4b 4f3d 6e57 5c3d b5ea 103d
00000270: 2d17 0bbd 501d 963d e3e3 93bd 256d 4fbc
00000280: 116e 2abd f2d6 613c 32b6 09be 1674 8bbd
00000290: 7311 263e 2244 1fbe 462a 4ebe a100 223e
000002a0: c3ab 43be 72dd 12be 7f8a 083e 57a1 7e3d
000002b0: 1df5 a13d fbcc 06be ba43 693d dd3f be3d
000002c0: 8c5b cfbd bad0 103e f001 493e a40d 403d
000002d0: d98e e9bd 02b3 483c 80ff 09be 2a01 04be
000002e0: 6cfe 233c 3c53 04bd 5696 e5bd e7bb edba
000002f0: 549a dfbb 8cbc d63d 330c 9f3c 86c8 e9bc
00000300: b226 013e aa13 993d 75be debc 8ddc d73d
00000310: 180e 3c3d 871a 7dbd b8b6 0ebd 3b84 d4bd
00000320: 4d7a d4bd 9853 b2bd d877 68bd 97c9 3dbe
00000330: c6cb 1bbb bea2 99bd 5663 7dbc 97b5 a3bd
00000340: 3cb0 66bd a18a 7bbd 9818 53bd 10b6 15bd
00000350: 46b7 a43d 421f 77bd c5f2 90bc 8904 d83d
00000360: 58c5 1a3d b64a 9ebd 84d6 bcbd e158 093d
00000370: 6457 afbd 184c b4bc 3f58 7e3c ef14 1bbe
00000380: 0a07 953d 61a7 973d dd92 e7bc d683 76bd
00000390: e358 683d fe03 f73c e127 5bbe 2deb 943d
000003a0: b441 a83d e1d5 fdbd 01a6 663d b096 47bd
000003b0: 63dd 8dbd d0e4 0fbd 64fa 21be 9812 26be
000003c0: a392 9e3b 0c11 9abd 35b1 823d a8b4 ccbb
000003d0: 79a6 c43d d004 4f3d fed6 a33d dc6c 093e
000003e0: c904 1b3d 1e01 4bbd 6051 953c d493 fcba
000003f0: b6b6 f73a 4c08 873d 8b13 c53d c03f b03d

layer1.1.bn2.weight f4 [16]
0.5740324 0.47691372 0.3417789 0.5715393 0.20732035 0.103750125 0.13599971 0.43998224
0.6519003 0.51916015 0.21348858 0.3114423 0.5988967 0.2129196 0.3554417 0.34171572
00000000: caf3 123f 092e f43e a5fd ae3e 6650 123f
00000010: c94b 543e f27a d43d 8243 0b3e 5a45 e13e
00000020: f0e2 263f aee7 043f c09c 5a3e 5d75 9f3e
00000030: 4b51 193f 9807 5a3e 74fc b53e 5df5 ae3e

layer1.1.bn2.bias f4 [16]
0.3134634 -0.13714276 -0.59982646 0.021146428 -0.08467657 0.10190912 0.09749462 0.121205695
0.28825894 -0.5967055 -0.23069926 -0.029573957 -0.4131695 0.1769832 0.012801753 -0.32700408
00000000: 467e a03e 276f 0cbe 3a8e 19bf 463b ad3c
00000010: e96a adbd bbb5 d03d 42ab c73d b13a f83d
00000020: ad96 933e b1c1 18bf 6d3c 6cbe 1545 f2bc
00000030: f48a d3be 153b 353e 72be 513c 146d a7be

layer1.1.bn2.running_mean f4 [16]
-0.3499597 -0.023589935 0.031108644 -0.50078064 0.2187903 -0.06515277 0.058831554 0.5311285
-0.25752738 0.20061186 0.052986316 0.123193115 0.16913131 -0.08324695 0.11395749 0.13939494
00000000: eb2d b3be ae3f c1bc 8ed7 fe3c 2933 00bf
00000010: 900a 603e d16e 85bd 5bf9 703d 0af8 073f
00000020: a1da 83be 326d 4d3e 2e08 593d ac4c fc3d
00000030: c230 2d3e 607d aabd 8b62 e93d 8cbd 0e3e

layer1.1.bn2.running_var f4 [16]
0.23425971 0.13914825 0.074723236 0.16583405 0.09208209 0.042067368 0.036581833 0.21830375
0.22764783 0.21746522 0.042987395 0.105204806 0.17771855 0.05958272 0.0944132 0.11582192
00000000: c7e1 6f3e e17c 0e3e 7f08 993d 67d0 293e
00000010: 8995 bc3d d54e 2c3d d5d6 153d 058b 5f3e
00000020: 831c 693e 34af 5e3e 8d13 303d 9e75 d73d
00000030: dafb 353e 030d 743d b55b c13d 0b34 ed3d

layer2.0.conv1.weight f4 [32, 16, 3, 3]
0.007995286 -0.019050883 -0.10444123 0.041949227 -0.030880284 -0.14608726 -0.014080748 -0.06893908
-0.19372518 0.013031486 -0.014534975 -0.09130062 0.072009444 0.010565359 -0.06227081 -0.016176376
0.050864216 -0.070115685 0.041339997 0.024857225 0.011101192 -0.051612258 -0.0023510703 0.11277683
-0.112584725 -0.020750767 0.06404408 -0.051382817 -0.03759832 -0.055968903 -0.080082715 -0.12594274
-0.084627114 -0.056189485 -0.09447911 -0.030290687 0.018903935 0.056663983 0.09008018 0.013995237
0.04927065 0.11774197 -9.642077e-05 0.08718902 0.12952113 -0.16275324 -0.1326128 -0.1202145
-0.1201029 -0.10552269 -0.08296555 -0.08695246 -0.09433765 -0.030077035 -0.15482281 -0.17581406
-0.1666008 -0.15063636 -0.13133262 -0.13694426 -0.1943223 -0.21192552 -0.16800928 -0.09579114
-0.09047383 -0.024552 -0.052202966 -0.053131014 0.0052472465 0.104120865 0.14025822 0.05238467
0.00402915 0.074120544 0.06860069 -0.08465103 -0.063030034 0.038948007 -0.07001665 -0.07855185
-0.047292903 0.04349487 0.09376394 0.100375205 0.08979074 0.15129513 0.19160989 0.030154014
0.18149026 0.0784701 -0.04566695 -0.08351399 -0.0070266593 -0.025510807 -0.06455933 0.030263953
0.07882014 0.03611454 0.05817348 -0.13463509 -0.1569607 -0.05240522 -0.1780987 -0.1443208
-0.09215323 -0.09252553 -0.11846408 -0.04770309 0.01045176 0.094598524 0.04202453 0.117902316
0.12555502 0.11595648 0.062020764 0.11481926 0.043995477 -0.10991834 0.014618024 0.054597184
-0.1039727 -0.019679949 0.026854727 -0.15715949 -0.08077737 -0.079053886 -0.06410601 0.016014684
0.101799995 -0.09079297 -0.0034310236 0.09942465 -0.08140079 -0.023485504 0.03155554 -0.051860455
0.033107862 0.043017875 -0.010146614 0.0054937955 0.093341015 -0.012483873 -0.01175415 0.0020343016
-0.1337509 -0.14258246 -0.036121693 -0.092849575 -0.02086018 0.07718078 0.0575742 0.089026935
0.13855354 -0.081868835 -0.004997107 0.010075586 -0.06171952 0.018208208 0.026952658 0.025369057
0.09514799 0.025638545 0.030829089 -0.028848711 -0.088720016 0.02285315 -0.03793719 -0.055395134
-0.012077552 -0.049954973 -0.020248968 -0.15145324 -0.072622605 0.02368408 -0.14796676 -0.019698396
0.08835612 0.022379572 0.12311906 0.1595388 0.16633998 0.076043546 -0.099998474 0.053339344
-0.07196356 -0.22175069 -0.042762112 -0.18567485 -0.191038 0.018330313 -0.01957923 0.011230176
-0.001180336 0.009787875 0.029791264 0.0034977724 0.002618181 -0.005531094 -0.034613926 -0.08039304
-0.029097319 -0.04750007 -0.01613026 0.035256486 -0.06284844 -0.034601733 -0.024113705 0.3029477
0.093643524 -0.1606444 0.14863414 -0.03907347 -0.25843024 -0.083978936 -0.20300744 -0.2085547
-0.10654687 0.016675917 0.022576248 -0.042891484 -0.01929393 0.02374923 0.027101856 0.0620174
0.007845732 0.017531887 0.07690155 0.007560429 -0.0033589131 0.008986104 -0.011791727 -0.0037700934
-0.11106779 -0.1237903 0.114104226 0.11628009 -0.01348295 0.09617515 -0.036192495 -0.17225948
-0.045602407 -0.10687335 -0.13577251 0.06338308 0.05633108 -0.016896851 0.057644617 0.022947486
-0.066093475 -0.0447998 -0.063355215 -0.053687617 0.08837527 0.049488407 -0.024583679 0.10191684
00000000: a9fe 023c 9910 9cbc 49e5 d5bd f4d2 2b3d
00000010: a6f8 fcbc e697 15be f0b2 66bc ef2f 8dbd
00000020: e55f 46be 0482 553c 1b24 6ebc d2fb babd
00000030: b079 933d 541a 2d3c ad0f 7fbd 5284 84bc
00000040: ff56 503d d098 8fbd 2154 293d 61a1 cb3c
00000050: c6e1 353c 6067 53bd 6a14 1abb 8af7 e63d
00000060: d292 e6bd 83fd a9bc 8b29 833d ca76 52bd
00000070: b200 1abd a63f 65bd 6802 a4bd 22f7 00be
00000080: fb50 adbd f226 66bd 437e c1bd 2d24 f8bc
00000090: 6ddc 9a3c 7e18 683d f57b b83d 474c 653c
000000a0: 05d0 493d b422 f13d 8235 cab8 2890 b23d
000000b0: 30a1 043e c9a8 26be a6cb 07be 0533 f6bd
000000c0: 82f8 f5bd 481c d8bd d8e9 a9bd 2214 b2bd
000000d0: 1934 c1bd 1d64 f6bc df89 1ebe 9a08 34be
000000e0: 6699 2abe 6b40 1abe 0f7c 06be 1e3b 0cbe
000000f0: 6dfc 46be 0103 59be a00a 2cbe 252e c4bd
00000100: 584a b9bd 4721 c9bc c7d2 55bd e89f 59bd
00000110: 18f1 ab3b 523d d53d da9f 0f3e 4f91 563d
00000120: f606 843b 83cc 973d 857e 8c3d 855d adbd
00000130: e415 81bd f287 1f3d e464 8fbd cbdf a0bd
00000140: 34b6 41bd ad27 323d 4f07 c03d 8491 cd3d
00000150: 35e4 b73d 1ced 1a3e 6235 443e 8d05 f73c
00000160: 95d8 393e efb4 a03d 450d 3bbd 6209 abbd
00000170: e43f e6bb 0afc d0bc af37 84bd 1cec f73c
00000180: 746c a13d d7ec 133d 5147 6e3d c8dd 09be
00000190: 4eba 20be dba6 56bd 815f 36be d5c8 13be
000001a0: d5ba bcbd 067e bdbd 4c9d f2bd 5164 43bd
000001b0: dc3d 2b3c dfbc c13d ea21 2c3d c576 f13d
000001c0: 7f91 003e 977a ed3d 7c09 7e3d 5c26 eb3d
000001d0: 9a34 343d de1c e1bd 7080 6f3c 4ca1 5f3d
000001e0: a4ef d4bd d837 a1bc 72fe db3c 6bee 20be
000001f0: 9b6e a5bd 01e7 a1bd 034a 83bd 3a31 833c
00000200: 847c d03d aaf1 b9bd 06db 60bb 279f cb3d
00000210: 75b5 a6bd ac64 c0bc 6240 013d a16b 54bd
00000220: 1c9c 073d 8333 303d fc3d 26bc 4c05 b43b
00000230: 9329 bf3d 2989 4cbc 7a94 40bc eb51 053b
00000240: fff5 08be 2301 12be 57f4 13bd eb27 bebd
00000250: f8e2 aabc f510 9e3d edd2 6b3d c153 b63d
00000260: fbe0 0d3e d9aa a7bd c6be a3bb 1214 253c
00000270: 9bcd 7cbd 6129 953c d2cb dc3c c5d2 cf3c
00000280: f3dc c23d ed07 d23c 498d fc3c 2254 ecbc
00000290: d7b2 b5bd 8736 bb3c 0764 1bbd 02e6 62bd
000002a0: ede0 45bc 969d 4cbd 2ae1 a5bc 8f16 1bbe
000002b0: 29bb 94bd 1e05 c23c 9984 17be 885e a1bc
000002c0: 0ef4 b43d 5d55 b73c d925 fc3d 245e 233e
000002d0: 0755 2a3e b8bc 9b3d 00cc ccbd 5b7a 5a3d
000002e0: a261 93bd 9d12 63be 5327 2fbd 8c21 3ebe
000002f0: 779f 43be 7429 963c 9f64 a0bc c6fe 373c
00000300: 81b5 9aba 535d 203c cf0c f43c e23a 653b
00000310: ca95 2b3b 2e3e b5bb 55c7 0dbd 1ba5 a4bd
00000320: 805d eebc 6f8f 42bd 9b23 84bc 1b69 103d
00000330: afb6 80bd 8cba 0dbd 1b8a c5bc f61b 9b3e
00000340: 2dc8 bf3d f77f 24be 8c33 183e 810b 20bd
00000350: f850 84be 26fd abbd 2fe1 4fbe 5d8f 55be
00000360: 3f35 dabd ef9b 883c d3f1 b83c fbae 2fbd
00000370: 4e0e 9ebc bf8d c23c b604 de3c f505 7e3d
00000380: 638b 003c 089f 8f3c 8f7e 9d3d 7abd f73b
00000390: 3621 5cbb 743a 133c 1632 41bc ac13 77bb
000003a0: 8277 e3bd c585 fdbd 7aaf e93d 4124 ee3d
000003b0: 97e7 5cbc 7af7 c43d 953e 14bd ca64 30be
000003c0: 97c9 3abd 6ae0 dabd f307 0bbe fdce 813d
000003d0: 6bbb 663d 446b 8abc c31c 6c3d 5efc bb3c
000003e0: 045c 87bd ff7f 37bd 61c0 81bd 8ce7 5bbd
000003f0: 18fe b43d 5bb4 4a3d b663 c9bc c7b9 d03d

layer2.0.bn1.weight f4 [32]
0.3469797 0.40906295 0.49091908 0.432835 0.34487998 0.4065258 0.54138964 0.3799895
0.34724495 0.37631577 0.45832962 0.40616405 0.416917 0.4905968 0.3827743 0.31127495
0.42630705 0.5443124 0.3915164 0.4258341 0.37631726 0.43692562 0.4060396 0.35689202
0.41193613 0.37892526 0.45502794 0.42989102 0.40507182 0.4363177 0.3404013 0.39741966
00000000: 53a7 b13e b370 d13e bf59 fb3e 8d9c dd3e
00000010: 1c94 b03e 2624 d03e 8398 0a3f fc8d c23e
00000020: 17ca b13e 76ac c03e 2eaa ea3e bcf4 cf3e
00000030: 2576 d53e 812f fb3e fefa c33e 6e5f 9f3e
00000040: eb44 da3e 0f58 0b3f d674 c83e ed06 da3e
00000050: a8ac c03e b7b4 df3e 6ce4 cf3e 8dba b63e
00000060: 4be9 d23e 7e02 c23e 6cf9 e83e ad1a dc3e
00000070: 9365 cf3e 0965 df3e 1449 ae3e 977a cb3e

layer2.0.bn1.bias f4 [32]
0.17453937 -0.07288831 -0.12191136 0.13680989 0.10180866 -0.107439205 0.011312225 0.018796712
0.05578213 0.21361561 -0.16021039 0.034502134 -0.09436716 -0.24330643 -0.18854895 0.017987845
0.04171589 -0.045646913 -0.07675736 0.026701367 0.2063088 -0.042970296 -0.008958366 -0.022621425
0.17083608 0.1494304 -0.02812884 -0.051283184 -0.17187966 -0.044057433 -0.061372172 0.119723365
00000000: 73ba 323e 7746 95bd aaac f9bd e417 0c3e
00000010: 0f81 d03d 1609 dcbd e956 393c 90fb 993c
00000020: ce7b 643d 0dbe 5a3e 310e 24be 1c52 0d3d
00000030: 9243 c1bd 5225 79be fa12 41be 3f5b 933c
00000040: 48de 2a3d 42f8 3abd f632 9dbd d3bc da3c
00000050: 9d42 533e 9f01 30bd 1cc6 12bc 9150 b9bc
00000060: a7ef 2e3e 4804 193e 746e e6bc 510e 52bd
00000070: 3901 30be 9175 34bd 6361 7bbd 8631 f53d

layer2.0.bn1.running_mean f4 [32]
-1.5264271 -0.6146913 0.11068857 -1.297142 -0.14813963 -0.45054325 -0.52061456 -1.5864054
0.062447138 -1.4774051 -0.95088536 -0.028197434 -0.23907469 -0.27876544 -0.108798936 0.26354545
0.5606174 -1.7306894 1.3183961 -0.25741163 -1.8820741 -0.47866622 -3.3241434 0.12177216
-1.884563 -1.2196447 -0.58477235 -0.45849094 -0.05061283 -0.23918103 0.92025876 -1.3517742
00000000: f761 c3bf 695c 1dbf b0b0 e23d c008 a6bf
00000010: eab1 17be 9bad e6be ff46 05bf 550f cbbf
00000020: 92c8 7f3d 9c1b bdbf 396d 73bf 4efe e6bc
00000030: ffcf 74be 58ba 8ebe fad1 debd 6eef 863e
00000040: 9f84 0f3f 3b87 ddbf 34c1 a83f 75cb 83be
00000050: cee7 f0bf bd13 f5be c4be 54c0 af63 f93d
00000060: 5c39 f1bf 511d 9cbf a4b3 15bf 53bf eabe
00000070: 664f 4fbd dfeb 74be 1496 6b3f f006 adbf

layer2.0.bn1.running_var f4 [32]
0.8845996 0.50878465 0.69294596 1.0490057 0.58876956 0.80272067 1.9238513 0.6241939
0.98613626 1.1091936 0.54308397 0.5839082 0.78689796 0.8609809 0.35333014 1.0981811
0.815239 0.8816012 0.6015571 1.0319726 0.96052045 0.94598293 0.7351134 0.35277298
1.3899162 0.98251384 0.9329807 0.6645291 0.4069194 0.983884 0.584166 0.8374589
00000000: 1f75 623f b63f 023f e864 313f d245 863f
00000010: 9ab9 163f 1a7f 4d3f c240 f63f 2ccb 1f3f
00000020: 6d73 7c3f 0efa 8d3f 8d07 0b3f 027b 153f
00000030: 2572 493f 3f69 5c3f b0e7 b43e 3391 8c3f
00000040: 81b3 503f 9eb0 613f a5ff 193f ae17 843f
00000050: abe4 753f f02b 723f 6430 3c3f a99e b43e
00000060: c6e8 b13f 0786 7b3f d3d7 6e3f 941e 2a3f
00000070: bd57 d03e d2df 7b3f e78b 153f b563 563f
